results/stab/models/stab_model_final_20260110_193218.pth (torch, 838365 bytes, 53 tensors)

feature_embed.weight f4 [64, 1]
0	0xbee8ed9d	-0.45493785
1	0xbf14c4a5	-0.58112556
2	0x3f63e241	0.8901711
3	0xbf64a50e	-0.89314353
4	0x3f565eda	0.8373848
5	0x3f030894	0.51184964
6	0xbf69d83e	-0.91345584
7	0xbf00a85f	-0.50256914
8	0x3f325fe7	0.69677585
9	0x3f4e5ed2	0.80613434
10	0xbe839b7d	-0.25704566
11	0x3e05431b	0.1301388
12	0xbe4605a8	-0.19338095
13	0x3ef175ec	0.4716028
14	0x3ef362f1	0.47536424
15	0xbed0e1ab	-0.4079717
16	0x3eb602c2	0.3554898
17	0x3e9d3aab	0.30708823
18	0xbf124b85	-0.57146484
19	0x3ef3e270	0.47633696
20	0xbd6aa251	-0.057283703
21	0xbf2d758a	-0.67757475
22	0xbf6cd081	-0.9250565
23	0x3f1f7d96	0.62301004
24	0x3ec8019e	0.39063734
25	0x3f77ca72	0.9679328
26	0xbf51e040	-0.81982803
27	0x3f4a421c	0.79007125
28	0xbf42e2f7	-0.7612757
29	0xbeb04dc4	-0.3443433
30	0x3f33a6c9	0.7017637
31	0xbf62a2d8	-0.8852973
32	0xbec36178	-0.381603
33	0x3f3a898d	0.72866136
34	0x3f115eae	0.56785095
35	0x3f0b27df	0.54357713
36	0x3f590f01	0.8478852
37	0xbdee348c	-0.11631116
38	0xbf44b117	-0.7683272
39	0xbf008d2e	-0.50215423
40	0x3f624a00	0.88394165
41	0x3f7928c6	0.9732784
42	0xbe699d05	-0.22813804
43	0xbeee652c	-0.46561563
44	0x3ed65bf2	0.41867024
45	0x3f719349	0.94365364
46	0xbebf9192	-0.3741575
47	0x3ebc6c56	0.36801404
48	0x3e834f37	0.25646374
49	0x3f13c265	0.577185
50	0x3f5a0db1	0.8517714
51	0x3f08da56	0.53458154
52	0xbf4e489e	-0.80579555
53	0x3f581ce9	0.84419113
54	0x3e7ba6b6	0.24575314
55	0xbf60cd28	-0.87813044
56	0x3f3b7824	0.73230195
57	0xbeb81a51	-0.35957578
58	0xbef9d521	-0.48795417
59	0xbdaf1e17	-0.08550661
60	0x3ecf4e55	0.4048945
61	0x3ec83039	0.3909929
62	0x3f1d6768	0.6148591
63	0xbf6e6e28	-0.93136835

feature_embed.bias f4 [64]
0	0x3ee76a42	0.45198256
1	0x3f709ef1	0.93992525
2	0xbea62451	-0.32449582
3	0xbf0eaf7b	-0.5573651
4	0xbf2d6f73	-0.67748183
5	0xbef86947	-0.4851782
6	0xbf64d514	-0.8938763
7	0xbda631a4	-0.08114937
8	0x3d9be4d1	0.07612003
9	0x3f6479cb	0.8924834
10	0x3f0ea899	0.5572601
11	0xbf4a7cc2	-0.79096615
12	0x3ef48877	0.47760364
13	0xbefd7382	-0.49502188
14	0xbe9f808c	-0.3115276
15	0xbd96738d	-0.07346258
16	0x3e8f612a	0.28003818
17	0xbf01d3c4	-0.50713754
18	0xbe629dd6	-0.22130522
19	0x3e160f30	0.14654231
20	0xbe90d06b	-0.2828401
21	0x3d5fdf2f	0.054656204
22	0xbf7ca84c	-0.986943
23	0x3e488733	0.19582824
24	0x3eab45f9	0.33451822
25	0xbf3effe4	-0.7460921
26	0xbe3a61a8	-0.18201315
27	0x3f79da26	0.97598493
28	0xbf70a727	-0.94005054
29	0xbdd00205	-0.10156635
30	0xbf0dd64e	-0.5540513
31	0xbea5dc28	-0.32394528
32	0x3ea16fd4	0.3153063
33	0x3f0da558	0.5533042
34	0xbf52622f	-0.82181066
35	0x3ecd2400	0.40066528
36	0x3dd72d92	0.10506739
37	0xbf63b817	-0.88952774
38	0xbe8fb863	-0.28070363
39	0x3f18f069	0.59741837
40	0x3f431d67	0.7621674
41	0xbdde8a51	-0.108662255
42	0x3f18b9f7	0.5965876
43	0x3f34dd56	0.7065023
44	0x3e925fc5	0.2858869
45	0xbf328f00	-0.6974945
46	0x3d6410cf	0.055680092
47	0xbf0fcb16	-0.5616926
48	0x3e6ff670	0.23433852
49	0x3f12960f	0.5726022
50	0x3ef1192f	0.47089526
51	0x3f0578d3	0.5213749
52	0xbf1fa4c8	-0.6236081
53	0x3f6e0828	0.92981195
54	0xbf0c7e6d	-0.5488041
55	0xbf2cbc26	-0.6747459
56	0xbf680d31	-0.9064513
57	0x3f4df3f0	0.80450344
58	0xbe8ab733	-0.27092895
59	0x3eb82517	0.35965797
60	0x3d87b105	0.06625561
61	0x3ee32f26	0.4437191
62	0xbf24451c	-0.6416795
63	0x3f2be95f	0.6715297

transformer.layers.0.self_attn.in_proj_weight f4 [192, 64]
0	0x3d695285	0.056963462
1	0xbe0973ef	-0.13423131
2	0x3d4d248f	0.050083693
3	0x3e07a904	0.13248068
4	0xbca875db	-0.02056401
5	0x3de8ef33	0.11373749
6	0x3dc92fef	0.09823596
7	0xbc978371	-0.018495293
8	0xbd29a2af	-0.041414913
9	0xbe1502dd	-0.14551874
10	0x3d361048	0.04444912
11	0x3da4c537	0.08045428
12	0xbe198d81	-0.14995386
13	0x3d9a6658	0.07539052
14	0xbda63921	-0.08116365
15	0x3da544af	0.08069741
16	0xbd0944ec	-0.033512995
17	0xbdb9ee99	-0.09078712
18	0xbd6e2f1f	-0.058150407
19	0x3cab6718	0.020923182
20	0x3d52a350	0.05142528
21	0x3cb5225c	0.02211111
22	0x3ce6dcab	0.028181395
23	0xbbdb874f	-0.0066994797
24	0x3dd89107	0.10574537
25	0x3ce630b5	0.028099397
26	0x3d39604c	0.04525785
27	0x3d55c7e7	0.052192595
28	0x3e0b3896	0.13595805
29	0x3dad71db	0.08468982
30	0xbda38d16	-0.079858944
31	0xbd2ee27a	-0.042696454
32	0xbe0cc294	-0.137461
33	0xbd0e45f5	-0.034734685
34	0x3b746341	0.0037290605
35	0xbd8eccc1	-0.069726475
36	0xbdafd3b0	-0.08585298
37	0xbe0dff30	-0.13866878
38	0x3de9c20a	0.11413963
39	0xbc0ae598	-0.008477591
40	0x3de47c50	0.11156523
41	0x3de51bf6	0.11186974
42	0x3d6218de	0.055199496
43	0x3df9a281	0.12189198
44	0xbca9bf18	-0.020721003
45	0xbde2dafe	-0.11076926
46	0xbb2d35a5	-0.002642968
47	0x3dcc047c	0.09961793
48	0x3deaa5cc	0.114574045
49	0x3cee79f0	0.029110879
50	0xbdbdc937	-0.09266894
51	0xbd525aa5	-0.051355977
52	0xbd74912f	-0.05970877
53	0xbd85f7e2	-0.065414205
54	0x3bf6b63b	0.007529048
55	0xbd9d20ec	-0.07672295
56	0xbdc47319	-0.09592266
57	0x3d7fafc3	0.06242348
58	0xbd4fd02e	-0.050735645
59	0xbe12d266	-0.14338073
60	0xbdfce771	-0.123488314
61	0x3bad8ea5	0.0052965456
62	0xbdb7bf6b	-0.08972057
63	0x3d8cf191	0.06882013
64	0x3d6cc7aa	0.057807602
65	0x3dc78dc1	0.09743834
66	0x3bd37fcf	0.006454445
67	0x3d03e5be	0.03220152
68	0x3cc0baac	0.023526512
69	0xbd95dce0	-0.07317519
70	0x3de408d1	0.11134494
71	0xbe00702f	-0.12542795
72	0x3e0602b0	0.13086963
73	0xbdb1a4aa	-0.08673985
74	0x3d606690	0.05478531
75	0x3dcf5705	0.101240195
76	0x3e00cac5	0.1257735
77	0xbd7e8003	-0.0621338
78	0x3df9123e	0.121616825
79	0x3df0d53c	0.11759421
80	0xbdf842ed	-0.1212214
81	0x3d90a559	0.070627876
82	0xbda787ec	-0.08180222
83	0x3de1128d	0.109898664
84	0xbe008954	-0.12552387
85	0x3dadbdd2	0.08483471
86	0xbdceebdc	-0.1010358
87	0xbd32cd8c	-0.043653056
88	0xbe14874c	-0.14504737
89	0x3c57ba92	0.01316704
90	0x3dcc2f20	0.09969926
91	0x3e04696f	0.12930845
92	0xbc4791e7	-0.012180782
93	0x3e189ca2	0.149035
94	0x3d42060b	0.047369044
95	0xbd233aaa	-0.03985087
96	0xbddfdce8	-0.109308064
97	0x3c2d5701	0.010579825
98	0x3c29ecef	0.010371431
99	0x3dcf68bd	0.10127399
100	0x3e0e5b92	0.13902119
101	0x3de7f4c4	0.11325982
102	0xbc9f4352	-0.01944128
103	0x3cee5802	0.0290947
104	0xbe072fe2	-0.1320186
105	0xbb988319	-0.0046543
106	0xbcfcff13	-0.030883348
107	0xbde16013	-0.11004653
108	0x3d8ce308	0.0687924
109	0x3de29b0f	0.11064731
110	0x3ce4b290	0.027917176
111	0x3d3676ab	0.044546764
112	0xbde3e921	-0.1112845
113	0x3d9b94c3	0.075967334
114	0xbdbfa869	-0.093582936
115	0xbd08fad5	-0.033442337
116	0xbae2d879	-0.0017306946
117	0x3e0d95ff	0.1382675
118	0xbc4456e4	-0.011983607
119	0xbda25faf	-0.079284064
120	0x3dac0613	0.08399596
121	0xbdf372f1	-0.11887158
122	0xbe0dd333	-0.13850097
123	0xbdefd17f	-0.1170988
124	0x3cb88176	0.02252267
125	0x3d95389b	0.07286187
126	0xbc122665	-0.008920287
127	0xbdee3102	-0.11630441
128	0x3dc4c4ac	0.09607825
129	0x3d85517e	0.06509684
130	0x3dcd0988	0.100115836
131	0x3d5c502f	0.053787407
132	0xbc1158c9	-0.008871266
133	0xbde2e5f7	-0.110790186
134	0x3dc5fc24	0.09667233
135	0xbc91eeb3	-0.017814016
136	0xbe05191e	-0.12997863
137	0x3b87e7dd	0.0041475133
138	0x3dffba44	0.12486699
139	0xbd9ba08e	-0.07598983
140	0x3ddcb0db	0.1077592
141	0xbe037bdb	-0.12840216
142	0xbd4e0af9	-0.050303433
143	0x3cea4c68	0.028600886
144	0xbb8812da	-0.004152638
145	0xbd3a6b16	-0.04551228
146	0xbc3fb49a	-0.011700774
147	0x3da37a7d	0.07982347
148	0xbde6bf7b	-0.11266991
149	0xbdb4a697	-0.08820837
150	0xbbc2c2fe	-0.005943655
151	0x3b30292d	0.0026880011
152	0x3e0dc312	0.13843945
153	0x3d87e94d	0.066362955
154	0x3e080b46	0.1328555
155	0xbcd293fa	-0.025705326
156	0x3dcb7e75	0.09936229
157	0xbda465c8	-0.08027226
158	0x3d5cc545	0.05389907
159	0xbda1fe22	-0.079098
160	0xbdfd1a77	-0.123585634
161	0xbdc22ca5	-0.094811715
162	0x3da0f5b6	0.07859366
163	0xbe06dfd2	-0.13171318
164	0x3d8d54aa	0.06900914
165	0xbd8b23ce	-0.067939386
166	0x3daec3f2	0.08533467
167	0xbb57416e	-0.0032845396
168	0x3d52db74	0.051478818
169	0x3d9cc2cc	0.07654342
170	0x3d8dd6f1	0.069257624
171	0x3df7d9bf	0.12102079
172	0xbddac877	-0.10682767
173	0xbd829933	-0.06376877
174	0xbe0b492e	-0.13602135
175	0xbe0e94e4	-0.13923985
176	0x3d78784c	0.0606616
177	0x3dd99db8	0.106257856
178	0x3d9465c2	0.07245971
179	0x3b80517b	0.003915963
180	0x3d415d22	0.04720796
181	0xbd8c2378	-0.068427026
182	0x3e049a8a	0.12949577
183	0x3df8d20f	0.121494405
184	0xbd868719	-0.065687366
185	0xbdc4ffc2	-0.096190944
186	0xbd68b91c	-0.05681716
187	0xbdfe68c3	-0.124223255
188	0x3b3da65b	0.0028938267
189	0x3e1e8fa5	0.15484484
190	0x3dd177d5	0.10227934
191	0x3c83e140	0.016098619
192	0xbda54ecb	-0.08071669
193	0xbe02d16b	-0.12775199
194	0xbd2369e8	-0.039895922
195	0x3e1ad3f3	0.15119915
196	0xbd96a312	-0.07355322
197	0x3dd6c129	0.10486061
198	0xbb8ef19e	-0.004362299
199	0xbdabfe22	-0.08398081
200	0xbda4098b	-0.08009633
201	0xbdbb87b4	-0.09156743
202	0x3dfba250	0.12286818
203	0x3e07863b	0.13234799
204	0x3bbe3922	0.0058051506
205	0xbd6f3dab	-0.05840842
206	0xbde2bf34	-0.11071625
207	0xbd50a6c7	-0.0509403
208	0x3d965018	0.073394954
209	0x3da49535	0.080362715
210	0x3e0acaf8	0.13553989
211	0xbd9d5871	-0.076828845
212	0xbc9c752e	-0.019098844
213	0x3d6674be	0.056263678
214	0x3cb121ed	0.021622622
215	0xbe044346	-0.12916288
216	0xbd92bd07	-0.0716496
217	0xbdabca83	-0.083882354
218	0x3d9aaa05	0.0755196
219	0xbe0e7dd2	-0.13915184
220	0x3da53e1d	0.08068488
221	0x3da1bd6c	0.078974575
222	0xbe027fcf	-0.12744068
223	0xbd53041a	-0.051517583
224	0x3e0e8e27	0.13921414
225	0xbd46a8fa	-0.048500992
226	0x3d4fa280	0.05069208
227	0xbdc3163b	-0.095257245
228	0xbcf14456	-0.02945153
229	0x3dc27b75	0.09496204
230	0xbdbde499	-0.09272117
231	0xbd2a08f7	-0.041512456
232	0xbdc83eee	-0.09777628
233	0xbd89e92b	-0.067339264
234	0xbda8d72b	-0.08244165
235	0xbdac58b3	-0.084153555
236	0xbd7112ce	-0.058855824
237	0xbd2d7ab7	-0.042353358
238	0xbc96da37	-0.0184146
239	0xbd8ad3c8	-0.06778675
240	0x3d33982e	0.0438463
241	0xbd851620	-0.06498361
242	0xbde72fca	-0.11288412
243	0xbe036904	-0.12833029
244	0x3c82a2d9	0.015946792
245	0xbde309f9	-0.110858865
246	0x3dd37633	0.10325279
247	0xbcd85209	-0.026406305
248	0xbd4e41d8	-0.050355762
249	0xbb298bc0	-0.002587065
250	0x3d986208	0.07440573
251	0xbdb5c1cc	-0.088748544
252	0xbd8f03c0	-0.06983137
253	0xbe1805e3	-0.14845996
254	0x3d7c62dd	0.06161772
255	0x3d6d6e8f	0.057966765

transformer.layers.0.self_attn.in_proj_bias f4 [192]
0	0xbc1f1a28	-0.009710826
1	0xbc246ed3	-0.010036188
2	0x3c274618	0.010209583
3	0xbb4c0ba3	-0.0031134866
4	0x3c1fec83	0.009760979
5	0xbba520e0	-0.0050393194
6	0xbc2de0a4	-0.0106126405
7	0x3c2167bb	0.009851391
8	0x3c22cb05	0.009936099
9	0x3c713f9c	0.014724638
10	0xbbf369e2	-0.0074283937
11	0x3b21a60b	0.002466562
12	0x3c277080	0.010219693
13	0xbc2c61a9	-0.010521331
14	0x3c061070	0.00818263
15	0xbc2ba2bf	-0.010475813
16	0x3c10557a	0.008809442
17	0xbc98377c	-0.018581145
18	0xbcaab74f	-0.020839361
19	0xbca212e2	-0.019784395
20	0xbb9ca7ba	-0.0047807368
21	0xbca40c97	-0.020025535
22	0xbc9c520e	-0.019082095
23	0xbc9de436	-0.019273859
24	0x3bfa0e11	0.0076310714
25	0x3ca07583	0.019587284
26	0x3ca1cceb	0.019751033
27	0xbc9fe252	-0.019517098
28	0xbc98fbe7	-0.018674804
29	0x3c87bd8f	0.01656988
30	0xbcae8de3	-0.021307891
31	0xbbf2bda3	-0.0074078604
32	0x3a80bf7d	0.0009822693
33	0xbc079c1e	-0.008276967
34	0x3c4903c8	0.012268968
35	0xbc48560f	-0.012227549
36	0x3c49bd88	0.012313254
37	0x3c3e50c2	0.011615934
38	0xbc41e5d3	-0.0118345795
39	0xbc11d58b	-0.00890101
40	0x3c1fb795	0.009748359
41	0x3b966092	0.004589149
42	0xbc4d94d6	-0.012547692
43	0x3a2202f0	0.00061802473
44	0xbc4a37e6	-0.012342429
45	0x3c314855	0.010820468
46	0xbc0c541d	-0.008564976
47	0xbc5488db	-0.012972082
48	0x3cd61119	0.0261312
49	0xbc24c1b7	-0.010055951
50	0x3ccfd607	0.02537061
51	0xbcb8ddc6	-0.022566687
52	0xbcda9cd2	-0.026686106
53	0x395f1bde	0.00021277319
54	0x3ce600ac	0.028076492
55	0xbce417c7	-0.02784337
56	0x3c807214	0.015679397
57	0x3cce5f62	0.025191966
58	0xbd0c2397	-0.03421363
59	0xbccf5ac0	-0.025311828
60	0xbc1a0c13	-0.009402293
61	0xbccbf1f1	-0.02489564
62	0xbcd85e03	-0.026412016
63	0xbcf2d857	-0.029644175
64	0x38da9086	0.0001042197
65	0xb7bde145	-2.2635455e-05
66	0x37cacc48	2.4175402e-05
67	0x3a2b127e	0.0006525888
68	0x360d5e24	2.1065434e-06
69	0xb91ceb36	-0.00014964942
70	0xb81a798a	-3.6829653e-05
71	0x36e0be2b	6.6978587e-06
72	0xb4e463ee	-4.2541018e-07
73	0x398e74f4	0.00027171487
74	0x35ecab46	1.7633217e-06
75	0x38106c20	3.4432975e-05
76	0xb9e85216	-0.00044311647
77	0xb8812727	-6.158492e-05
78	0xb917598d	-0.00014433842
79	0x389340aa	7.021551e-05
80	0x3807ff11	3.2424057e-05
81	0xb78079a9	-1.5315441e-05
82	0xb78abaf3	-1.6537937e-05
83	0x389ddcf7	7.527501e-05
84	0x385b94fd	5.2352425e-05
85	0xb88e20ab	-6.7771725e-05
86	0xb8b64d12	-8.692792e-05
87	0x38aac46b	8.1428174e-05
88	0x382be502	4.0982857e-05
89	0xb857356f	-5.130976e-05
90	0x3872abd1	5.7857313e-05
91	0xb7d6bf08	-2.5599744e-05
92	0x37f0e3ce	2.871631e-05
93	0x3889119e	6.5359505e-05
94	0x372151f9	9.615434e-06
95	0x3752f560	1.2574106e-05
96	0xb7f81b0e	-2.9576502e-05
97	0xb71356ac	-8.782063e-06
98	0x3900d9f6	0.00012288228
99	0x37a73282	1.993147e-05
100	0x38cf1a5d	9.87544e-05
101	0xb7a28424	-1.9373438e-05
102	0x3770e2db	1.4357934e-05
103	0x3702d728	7.798699e-06
104	0x36c38536	5.8269607e-06
105	0xb890a48a	-6.897103e-05
106	0x37f4c147	2.9177068e-05
107	0xb569f1f2	-8.715134e-07
108	0xb90b2a57	-0.00013271846
109	0xb8b4fd2e	-8.630227e-05
110	0x38a70dd0	7.965753e-05
111	0xb82804b4	-4.00587e-05
112	0xb9bf94e1	-0.00036541282
113	0x3a07d515	0.0005181593
114	0xba046fe5	-0.0005052074
115	0x39d40fa0	0.00040447433
116	0x3a290b8f	0.0006448561
117	0x38b7de10	8.767482e-05
118	0xba13d4dc	-0.00056393235
119	0x3a4067dc	0.0007339695
120	0xb8fbf313	-0.00012013889
121	0xba61e54e	-0.0008617238
122	0x3a6e6f3d	0.0009095555
123	0x3a847b37	0.0010107522
124	0xb9eff0c8	-0.00045765028
125	0x3aad5df9	0.0013226859
126	0x3a2962ac	0.00064615416
127	0x3a142843	0.00056517514
128	0x3a55febf	0.00081632653
129	0x3b08929a	0.0020839334
130	0x3bec1035	0.0072040805
131	0x3ad62abf	0.0016339644
132	0xbc88b165	-0.01668615
133	0xba950ecd	-0.0011372209
134	0xbb16066b	-0.002289201
135	0x3ac22d98	0.0014814613
136	0x3be5745f	0.007002398
137	0xbbadd721	-0.0053051864
138	0x3bb51094	0.005525658
139	0xbac54e6a	-0.0015053276
140	0x39df2dac	0.00042567903
141	0x3be6b576	0.007040675
142	0x3ac19716	0.0014769759
143	0x3b33c52d	0.0027430758
144	0xbbb99ca4	-0.005664425
145	0x3c277971	0.010221825
146	0xbb8484c5	-0.0040441477
147	0x3b45eb92	0.0030200225
148	0xbbb3ee5d	-0.0054910616
149	0xbb4d33dc	-0.0031311428
150	0x3c0a3cea	0.008437375
151	0x3ab87775	0.0014073687
152	0x3b8e64ff	0.0043455358
153	0xbc0f751f	-0.008755951
154	0x3b9c2274	0.0047648493
155	0x3bb67b78	0.005568918
156	0xba70ae2a	-0.0009181226
157	0xb9dcaa26	-0.0004208844
158	0x3b7a968b	0.0038236703
159	0x3bbdc86e	0.0057917153
160	0xb9303ffe	-0.00016808507
161	0x3b794a25	0.0038038578
162	0xbbec23ad	-0.0072064013
163	0xbc18b2b0	-0.009319946
164	0x3b16c246	0.002300398
165	0x3bdf9df3	0.006824249
166	0x3a4b90d6	0.00077654177
167	0x3a509e05	0.0007958117
168	0xb9052f42	-0.00012701473
169	0xbb015b8f	-0.001973841
170	0xbb9fa3fd	-0.004871844
171	0x3bee2bc4	0.007268401
172	0xbb4e1096	-0.0031442991
173	0x3b9f23d4	0.004856566
174	0x3c016696	0.007897994
175	0xbb9e1572	-0.004824334
176	0xbbc835de	-0.006109937
177	0x3c30eda3	0.0107988445
178	0x3b9ed2ad	0.004846892
179	0xba773a63	-0.00094310025
180	0x39e9339c	0.00044479675
181	0xbc463c0f	-0.01209928
182	0xbbabc18f	-0.00524158
183	0x3bd47f99	0.0064849374
184	0x3bff491f	0.007790699
185	0xbb04ae5e	-0.0020245533
186	0x3a82badc	0.0009973901
187	0x3ab7c998	0.0014021872
188	0x3bb94058	0.0056534223
189	0x3bb88b39	0.005631831
190	0x3b30aad7	0.0026957297
191	0x3b989958	0.004656952

transformer.layers.0.self_attn.out_proj.weight f4 [64, 64]
0	0x3dcf7526	0.10129766
1	0xbdeebdb9	-0.116572805
2	0xbd84ecaa	-0.064904526
3	0x3d58c656	0.052923523
4	0xbd7ebdff	-0.062192913
5	0x3b82b522	0.003988878
6	0x3d9f9f62	0.07794072
7	0xbbc41a1a	-0.005984557
8	0x3dc1b2c4	0.09457925
9	0xbde8fb90	-0.11376107
10	0xbc99cec1	-0.018775346
11	0xbd3426d3	-0.04398234
12	0x3dc6b7d1	0.09703029
13	0xbd92eae8	-0.07173711
14	0x3c1fe233	0.00975852
15	0x3d1749a4	0.036935464
16	0xbd75667e	-0.059912197
17	0xbd262bc1	-0.04056907
18	0xbde31961	-0.11088825
19	0x3d578d49	0.052624974
20	0x3dadbfd3	0.08483853
21	0xbd2fd2f0	-0.042925775
22	0xbca6509f	-0.020302115
23	0xbd96755f	-0.073466055
24	0xbd18c565	-0.037297625
25	0xbc4a3926	-0.012342727
26	0xbcd857af	-0.026408998
27	0x3db3955c	0.087687224
28	0x3b314426	0.0027048676
29	0xbb121e12	-0.0022295755
30	0xbda4ac37	-0.0804066
31	0x3d9d0ff6	0.0766906
32	0x3ccf06d9	0.02527182
33	0xbd8b03be	-0.06787823
34	0xbda18cc8	-0.0788818
35	0xbcf9abc0	-0.030477405
36	0xbde495ae	-0.11161362
37	0x3d9a4dca	0.07534368
38	0xbda36d6f	-0.07979857
39	0x3dc37ca1	0.095452555
40	0x3db2afef	0.08724963
41	0x3d294b41	0.041331533
42	0x3e050448	0.12989914
43	0x3df185d7	0.11793106
44	0xbcd78248	-0.02630724
45	0xbcb8f418	-0.02257733
46	0xbd3bf01d	-0.045883287
47	0xbcd11e3a	-0.025527108
48	0xbd639cb2	-0.05556936
49	0x3e02b2f2	0.12763575
50	0x3cc27f15	0.023742238
51	0xbdba1dc7	-0.09087711
52	0xbd488bf9	-0.048961613
53	0x3d21f44a	0.039539613
54	0xbd962fb4	-0.073333174
55	0x3d5ed08f	0.054398116
56	0xbd46e17a	-0.048554875
57	0xbaa71bb1	-0.0012749342
58	0x3dcf553d	0.1012368
59	0x3d974872	0.07386865
60	0xbdad769b	-0.08469888
61	0xbcb54237	-0.0221263
62	0xbc9d2482	-0.019182447
63	0x3d923a3a	0.07140012
64	0xbd5c642e	-0.053806476
65	0xbdd7232f	-0.105047576
66	0xbdf76f56	-0.120817825
67	0xbdd9e480	-0.10639286
68	0x3deab763	0.114607595
69	0x3c5c15f1	0.013432966
70	0xbd988b3d	-0.074484326
71	0xbcc7b247	-0.024377001
72	0x3e02a2b3	0.12757377
73	0x3d0c804d	0.034302045
74	0xbdba2ee5	-0.09090976
75	0xbc980b60	-0.018560112
76	0x3dc7c18f	0.09753715
77	0xbdb34189	-0.08752734
78	0xbd5f0051	-0.05444366
79	0xbd6e97c1	-0.058250193
80	0x3bc56926	0.0060244976
81	0xbb3650be	-0.0027819122
82	0xbd8441d0	-0.06457865
83	0xbd36ce10	-0.04463011
84	0xbd31eba8	-0.04343763
85	0xbdcdf7b9	-0.10057015
86	0x3d966f5d	0.073454596
87	0x3de4d213	0.11172881
88	0xbcc75cce	-0.024336245
89	0xbe077151	-0.1322682
90	0x3e012b46	0.12614164
91	0xbce0ef05	-0.027457723
92	0x3dedb2d4	0.116063744
93	0xbc8f4fd2	-0.017494116
94	0xbc06e52f	-0.008233353
95	0x3c411364	0.011784408
96	0x3d1d7224	0.03843893
97	0xbd76461b	-0.06012545
98	0xbd972011	-0.07379163
99	0x3d709905	0.05873968
100	0xbe055d72	-0.13023928
101	0x3ca74bb6	0.020421844
102	0x3d996ef5	0.074918665
103	0x3da1e94d	0.07905827
104	0xbcce7c1f	-0.02520567
105	0xbc43e3f8	-0.011956207
106	0xbde7c9b5	-0.113177694
107	0xbdd00393	-0.10156932
108	0xbdf2d252	-0.11856522
109	0x3cb73d2e	0.02236804
110	0xbd97f9c4	-0.07420686
111	0xbb94a5b3	-0.0045363544
112	0x3de2adc9	0.11068303
113	0xbb9911c0	-0.0046713054
114	0x3cf2aeb6	0.029624324
115	0xbd701d70	-0.058621824
116	0xbd4a85dc	-0.049444064
117	0xbdc5a53c	-0.096506566
118	0x3d6f787b	0.05846451
119	0xbcf453a3	-0.029825037
120	0xbd926b93	-0.071494244
121	0x3df9a2e7	0.12189274
122	0x3d77103b	0.060318213
123	0x3d83c264	0.064335614
124	0xbd6c0b39	-0.05762789
125	0x3dfec68d	0.12440214
126	0xbc9957e8	-0.018718675
127	0xbd53d157	-0.051713314
128	0x3d79f67b	0.061026078
129	0x3d14c0e2	0.03631676
130	0x3c8eb163	0.017418569
131	0x3d03dfc3	0.032195818
132	0x3de31b4a	0.11089189
133	0xbdc4c236	-0.09607355
134	0xbd547cbb	-0.051876765
135	0x3cc82a4d	0.024434233
136	0x3cdc933b	0.026925674
137	0x3cdc7d11	0.026915105
138	0x3d7ed8f6	0.06221863
139	0xbd0d07ed	-0.034431387
140	0xbdbe26c7	-0.0928474
141	0x3defc78b	0.11707982
142	0xbdeb4525	-0.11487798
143	0xbdf95d09	-0.12175948
144	0xbce0aa34	-0.02742491
145	0xbd78abf7	-0.060710873
146	0x3ddf09e2	0.10890557
147	0x3d8e0a98	0.06935614
148	0xbde63785	-0.11241058
149	0xbdf9f351	-0.12204612
150	0x3df7e59d	0.12104342
151	0x3d70fb0e	0.058833174
152	0xbd87f6c8	-0.06638867
153	0xbd9b7bc0	-0.07591963
154	0x3c48ff3c	0.012267884
155	0x3d24a91b	0.040200334
156	0x3d764583	0.060124885
157	0x3d05d331	0.03267211
158	0xbcbfdcf1	-0.023420783
159	0x3d209ba7	0.03921094
160	0x3dc1efaa	0.094695404
161	0x3bda765a	0.0066669406
162	0x3dc28c8a	0.09499462
163	0xbdcd8851	-0.10035766
164	0x3c0f8694	0.008760113
165	0x3ca7725c	0.020440273
166	0x3d849157	0.06473034
167	0xbd53dea3	-0.051725995
168	0x3db80703	0.089857124
169	0x3dc01d8c	0.093806356
170	0xbde6f468	-0.112770855
171	0xbd8a85b0	-0.0676378
172	0x3d09a3d7	0.033603515
173	0xbd9e9378	-0.07742971
174	0x3de26db4	0.110560805
175	0xbd8e3863	-0.06944349
176	0xbdb11a91	-0.08647645
177	0x3cb713ea	0.022348363
178	0x3d6076de	0.05480086
179	0xbd711738	-0.058860034
180	0x3d220901	0.039559368
181	0xbc484598	-0.012223624
182	0x3c1fa0f6	0.009742966
183	0x3dbbc553	0.09168496
184	0x3d6dcb44	0.058055177
185	0x3b450101	0.0030060413
186	0x3de40666	0.11134033
187	0xbca42652	-0.020037804
188	0x3da7daaf	0.081960075
189	0xbc9fa606	-0.019488346
190	0x3d95d3c8	0.07315785
191	0xbd01217b	-0.03152607
192	0x3cf85adf	0.030316768
193	0x3da29319	0.07938213
194	0x3d8ffecd	0.07031021
195	0x3d57df6f	0.052703317
196	0xbdc7efd7	-0.09762543
197	0xbde8d4a7	-0.11368685
198	0x3d837de5	0.06420497
199	0xbd102cd8	-0.035199016
200	0x3d95135a	0.07279082
201	0x3e0542b3	0.13013725
202	0x3dd96e97	0.106167965
203	0x3df16c9a	0.11788292
204	0xbda0424a	-0.07825144
205	0x3d6c8a18	0.057748884
206	0xbd9e18ed	-0.07719598
207	0xbda548c6	-0.08070521
208	0x3c6fee20	0.014644176
209	0x3ddc371a	0.10752697
210	0x3df6ca21	0.12050272
211	0x3cfdd1cd	0.03098383
212	0x3cb609ca	0.022221465
213	0x3c25101d	0.0100746425
214	0xbdb59456	-0.088661835
215	0xbda156cb	-0.078778826
216	0xbdee52d5	-0.11636893
217	0xbdc0c47a	-0.09412475
218	0x3d7fba38	0.06243345
219	0xbd8b1e0e	-0.06792842
220	0x3d85eb9d	0.0653908
221	0xbcef9aa9	-0.029248552
222	0x3dad59e9	0.084644146
223	0x3d8ae77e	0.06782435
224	0x3db35c06	0.087577865
225	0x3c686162	0.014183374
226	0xbdfa7033	-0.122284316
227	0xbd813919	-0.06309719
228	0x3d926d75	0.071497835
229	0x3d5dac38	0.05411932
230	0x3d79fecf	0.06103402
231	0xbd3f9150	-0.04676944
232	0xbd246fab	-0.040145557
233	0xbdca462f	-0.09876668
234	0x3db75e01	0.08953477
235	0xbd954716	-0.07288949
236	0xbe07db33	-0.13267212
237	0x3d97495a	0.073870376
238	0xbde1fc6f	-0.11034476
239	0x3c9871ab	0.018608889
240	0x3d9eef54	0.07760492
241	0x3d84b6b8	0.06480163
242	0x3d2383ee	0.03992074
243	0x3da502b1	0.08057154
244	0xbc9e631f	-0.019334374
245	0xbdf9be69	-0.12194521
246	0x3cc3cb01	0.02390051
247	0x3b1a2ab8	0.0023523998
248	0x3b1ca7b2	0.0023903665
249	0x3c76b38a	0.015057454
250	0x3dd0495e	0.10170244
251	0xbd954e54	-0.072903305
252	0x3da9236b	0.082587086
253	0xbda14ea9	-0.07876331
254	0x3e05c8b7	0.13064848
255	0x3c7cd8c2	0.015432538

transformer.layers.0.self_attn.out_proj.bias f4 [64]
0	0x3bcb2ae3	0.006200181
1	0xbb8fd92b	-0.004389902
2	0x3a31367e	0.0006760134
3	0x3c076f1f	0.008266239
4	0x3be8807b	0.007095394
5	0x3bcb62b7	0.006206836
6	0xba8a0e2c	-0.0010532788
7	0xbb82811b	-0.0039826757
8	0x3a62c0b5	0.00086499314
9	0xbbd54c99	-0.0065093753
10	0xbb2cba03	-0.0026355989
11	0x3adc04a0	0.0016786046
12	0x3af37d6f	0.0018576811
13	0xbb0432af	-0.0020171811
14	0xbbcc78de	-0.0062399944
15	0x3998ed05	0.00029168293
16	0xbc346901	-0.011011363
17	0x3983b73b	0.00025122784
18	0x3b13f0ea	0.0022574016
19	0x3be8a4d4	0.007099727
20	0x3a878a18	0.0010340838
21	0x3bd89a27	0.0066101733
22	0x3a82a16c	0.000996632
23	0xbc617e23	-0.0137629835
24	0xbbaf9e44	-0.005359443
25	0x3c01b8f1	0.007917629
26	0x3b53b461	0.003230356
27	0xbb78ad2c	-0.0037945015
28	0x3b8dccc2	0.0043273875
29	0x3c33c479	0.010972136
30	0x3a822987	0.0009930589
31	0x3b711855	0.0036788185
32	0xbb759aaf	-0.0037476232
33	0x3ad63ef5	0.0016345667
34	0x3c053c32	0.008132027
35	0xbc1ee012	-0.009696977
36	0xba7b4d23	-0.00095863844
37	0x3b987cc2	0.004653544
38	0x386336c6	5.417203e-05
39	0xbbdc3d0f	-0.006721146
40	0xbc60ad76	-0.013713231
41	0x3ba465b2	0.005017006
42	0xbbc22bdd	-0.005925639
43	0xbb4a54be	-0.0030873264
44	0x3b39a389	0.0028326234
45	0xbb03665c	-0.0020050025
46	0xb91c59a0	-0.00014910707
47	0x3bc643b0	0.0060505494
48	0xbc1effd6	-0.009704551
49	0xbb4832e4	-0.0030547911
50	0xbb448f4a	-0.0029992633
51	0xbb5d174c	-0.003373581
52	0x3b8154e3	0.003946887
53	0xbc36d6a8	-0.0111595765
54	0x3c353887	0.01106084
55	0xba9fc84b	-0.0012190429
56	0x3bb66681	0.0055664186
57	0x3ae76a7f	0.001765564
58	0x39d78105	0.00041104123
59	0xbb2d01c7	-0.0026398764
60	0xbc0f6eed	-0.008754474
61	0xbbbe2f6b	-0.0058039925
62	0x3c004643	0.007829252
63	0xbb84d35f	-0.0040535177

transformer.layers.0.linear1.weight f4 [256, 64]
0	0xbe07d54f	-0.13264965
1	0x3d32099f	0.043466207
2	0xbb9579a7	-0.004561621
3	0xbdf90a06	-0.12160115
4	0x3d0adb2f	0.033900436
5	0x3dfe6abd	0.124227025
6	0x3ca7e98f	0.020497112
7	0xbdd276f6	-0.10276596
8	0x3e0a48b4	0.13504297
9	0x3dfe9acd	0.1243187
10	0x3d5913a4	0.052997246
11	0x3d0e364c	0.03471975
12	0x3d9cc8c1	0.07655478
13	0x3d9fa78c	0.07795629
14	0xbd99fd94	-0.07519069
15	0xbc5058d3	-0.01271649
16	0x3d9282aa	0.071538284
17	0x3dcb4d57	0.09926861
18	0x3beb8e52	0.0071885968
19	0xbdb9dbbb	-0.090751134
20	0xbd8a4042	-0.067505375
21	0xbd746734	-0.059668735
22	0xbdc9ef95	-0.0986015
23	0xbdd252b6	-0.10269682
24	0xbd88adfe	-0.066738114
25	0xbdb016a2	-0.08598067
26	0x3d1eb861	0.038750056
27	0x3d42e54a	0.04758195
28	0x3dbf9a82	0.09355642
29	0x3de7cd25	0.11318425
30	0xbdba0762	-0.090834394
31	0xbdf0048f	-0.117196195
32	0x3c3d6c96	0.011561533
33	0x3c4caa85	0.012491827
34	0x3bc6a453	0.0060620694
35	0xbd4c4702	-0.049872406
36	0x3dc045b6	0.09388296
37	0xbdc95f8d	-0.09832678
38	0xbbf1e469	-0.007381965
39	0xbdca5e96	-0.09881322
40	0x3cc322d7	0.023820324
41	0x3c768aaf	0.015047713
42	0xbc840fb1	-0.016120763
43	0xbd3337ab	-0.04375426
44	0xbd96cbad	-0.07363067
45	0xbd0546e7	-0.03253832
46	0x3c9d811e	0.019226607
47	0x3dbbebe5	0.09175853
48	0x3d83cff7	0.064361505
49	0xbceb3628	-0.028712347
50	0xbd9be70a	-0.076124266
51	0x3c6e775e	0.014554827
52	0x3cd53aa9	0.026028948
53	0xbdd33cc1	-0.10314322
54	0xbd73df81	-0.05953932
55	0x3de42da4	0.11141518
56	0xbcf46b09	-0.029836195
57	0x3d390f30	0.0451805
58	0xbde431c9	-0.11142308
59	0xbda6e6d2	-0.08149494
60	0x3df22ef7	0.11825364
61	0xbd8dd977	-0.06926244
62	0xbc839810	-0.01606372
63	0xbd73eb25	-0.059550423
64	0x3dd755f1	0.10514439
65	0x3d6c5cd9	0.057705734
66	0x3d27c0fa	0.04095552
67	0xbd40e73d	-0.047095526
68	0xbcf3df93	-0.029769694
69	0x3ca870f5	0.020561675
70	0x3daa75a0	0.083232164
71	0xbd997418	-0.07492846
72	0x3cbea87f	0.023273705
73	0x3cae5ece	0.02128544
74	0x3d1661d5	0.036714394
75	0x3d81ee08	0.06344229
76	0xbdd46814	-0.10371414
77	0xbdc1cca5	-0.09462861
78	0xbcbe50ef	-0.023231952
79	0x3dfa898b	0.122332655
80	0x3cc50c41	0.024053695
81	0x3d638b47	0.055552747
82	0xbcd2498e	-0.02566984
83	0x3d28940c	0.041156814
84	0x3dba12c7	0.09085613
85	0x3db0c155	0.08630625
86	0x3dabd27d	0.08389757
87	0xbdc2bfa2	-0.09509207
88	0x3dcde1e6	0.10052852
89	0xbd8233bf	-0.06357526
90	0xbc8ee0b8	-0.017441139
91	0xbd352685	-0.04422619
92	0xbd89599d	-0.067065455
93	0x3d168c7b	0.036755066
94	0x3d03ec5e	0.03220784
95	0x3dc28a87	0.09499078
96	0x3d677374	0.05650659
97	0xbcb4c301	-0.022065641
98	0xbdb08fba	-0.08621164
99	0x3dd011be	0.10159634
100	0x3d0fdb45	0.03512122
101	0xbdcb2921	-0.09919954
102	0x3da7e13b	0.08197256
103	0xbdd9e20d	-0.10638819
104	0x3d5ace1e	0.053419225
105	0xbe1616a2	-0.14657071
106	0x3d5d501a	0.05403147
107	0xbd7f5963	-0.062341105
108	0x3dabce4e	0.08388959
109	0x3d1ca525	0.03824343
110	0x3d09faaf	0.033686336
111	0x3de2eba1	0.11080099
112	0x3dfb0f8a	0.12258823
113	0x3c9d2a52	0.019185219
114	0x3cfc6f94	0.030814923
115	0xbcc4f6a0	-0.024043381
116	0x3d50df84	0.05099441
117	0x3da4e22e	0.08050953
118	0x3d8c3698	0.068463504
119	0x3df974de	0.12180494
120	0x3db739dc	0.08946583
121	0xbd8ce893	-0.068802975
122	0xbd44f559	-0.048085544
123	0x3d003721	0.031302575
124	0xbd214b53	-0.039378475
125	0xbd49b9bb	-0.049249392
126	0xbd4baea8	-0.049727112
127	0x3d8bcc02	0.06826021
128	0xbd018910	-0.031624854
129	0x3d079ac7	0.03310659
130	0xbb9a4d12	-0.0047088945
131	0x3da5f104	0.08102611
132	0xbd4174b3	-0.047230434
133	0xbd49c14f	-0.04925662
134	0xbd4ad101	-0.049515728
135	0xbbb589ed	-0.0055401237
136	0x3dd13f30	0.1021713
137	0x3d1addbf	0.03780913
138	0x3db7083e	0.08937119
139	0x3d56da19	0.052454088
140	0x3d7215b2	0.05910272
141	0xbcbbca4a	-0.022923607
142	0x3df1d543	0.118082546
143	0xbdd17b75	-0.10228626
144	0x3dce9d5f	0.1008861
145	0xbcd8417b	-0.026398411
146	0xbcfe7eec	-0.03106638
147	0xbbe2dbb3	-0.006923163
148	0x3da464b0	0.08027017
149	0xbde5d62d	-0.112224914
150	0x3db595b4	0.08866444
151	0xbdd77fdf	-0.10522436
152	0xbda149a7	-0.07875376
153	0x3df0ad69	0.11751825
154	0xbe007a19	-0.12546577
155	0x3cf37438	0.029718503
156	0xbc0d95ed	-0.008641702
157	0xbd888f86	-0.06668
158	0x3dc5d0c3	0.09658959
159	0x3d8cb44f	0.06870329
160	0xbdb7d4c5	-0.089761294
161	0xbdd57649	-0.10422952
162	0xbd60dd82	-0.054898746
163	0xbd5efcab	-0.05444018
164	0xbc00e8d3	-0.00786801
165	0x3dedcd58	0.11611432
166	0xbd8e609b	-0.0695202
167	0x3db7cd57	0.08974712
168	0x3dd2aa39	0.10286374
169	0xbda4ec40	-0.080528736
170	0x3cd40c30	0.025884718
171	0x3dc4707b	0.095917664
172	0xbd5bf52a	-0.053700604
173	0x3dd19881	0.10234166
174	0xbdb5de1f	-0.08880257
175	0x3d5e8c94	0.054333284
176	0xbd684457	-0.0567058
177	0xbd94f4e6	-0.07273273
178	0x3dc22f54	0.094816834
179	0xbc672e5b	-0.014110173
180	0xbdac3b38	-0.084097326
181	0x3ded543b	0.11588331
182	0x3da07555	0.07834879
183	0xbc06bdb6	-0.008223942
184	0xbdd45a00	-0.10368729
185	0x3cc44dac	0.023962818
186	0x3c7ebea3	0.015548381
187	0xbda42c45	-0.08016256
188	0x3c87479f	0.016513644
189	0x3dd8b7d8	0.105819404
190	0x3c96ea90	0.018422395
191	0xbd4d10d6	-0.050064884
192	0x3d867b14	0.06566444
193	0x3cf0c715	0.029391805
194	0x3d51d582	0.051229008
195	0xbdbc1b89	-0.091849394
196	0x3de47048	0.111542284
197	0x3d941bd1	0.07231868
198	0x3db36049	0.08758599
199	0xbdf616ac	-0.12016043
200	0x3e000e09	0.12505354
201	0x3df8946d	0.12137685
202	0xbe06022b	-0.13086765
203	0x3db3c200	0.08777237
204	0x3d9b124e	0.07571851
205	0xbcb2f665	-0.021846006
206	0x3ddf0edb	0.10891505
207	0x3dba23c9	0.09088857
208	0xbb7871c4	-0.0037909606
209	0x3d1d5633	0.038412284
210	0x3c226916	0.00991275
211	0xbd9c3c34	-0.0762867
212	0xbdd5c4c7	-0.10437923
213	0xbaaf19aa	-0.0013359089
214	0xbd15fad3	-0.036616158
215	0x3da24ef3	0.079252146
216	0x3db635c6	0.08896975
217	0x3d9cc1ef	0.076541774
218	0xba5f688c	-0.00085223536
219	0xbda0c625	-0.07850293
220	0x3df0bf37	0.11755221
221	0x3d4224f4	0.047398522
222	0xbd824156	-0.06360118
223	0xbda37cb5	-0.0798277
224	0xbd95f9fb	-0.073230706
225	0x3d842298	0.06451911
226	0xbb9f2899	-0.0048571345
227	0x3de94aaa	0.11391194
228	0xbd2db02e	-0.042404346
229	0x3cce83fd	0.025209421
230	0x3de1940b	0.11014565
231	0xbe0fbcf8	-0.1403693
232	0x3d3172a4	0.04332222
233	0x3dcbc6ef	0.09950053
234	0xbdef5402	-0.11685945
235	0xbcbdb843	-0.023159152
236	0xbcc9a2f6	-0.024613839
237	0xbd0788a6	-0.033089302
238	0xbdbfaa61	-0.09358669
239	0x3da91402	0.08255769
240	0xbdf89f4b	-0.12139758
241	0xbc01f7b6	-0.007932594
242	0xbd71ad18	-0.059002966
243	0xbda7a079	-0.081849046
244	0x3da8829f	0.08228039
245	0xbd5f0e8a	-0.054457225
246	0xbd0233f0	-0.031787813
247	0xbd19d041	-0.037552122
248	0x3dd32f43	0.10311749
249	0xbcc26ec7	-0.023734463
250	0xbdf4680c	-0.11933908
251	0xbce67235	-0.02813063
252	0x3db62186	0.08893113
253	0x3d950903	0.072771095
254	0x3d085f36	0.033293925
255	0x3ce01ba7	0.027356936

transformer.layers.0.linear1.bias f4 [256]
0	0xbd1a4258	-0.037660927
1	0x3dd22b01	0.102621086
2	0x3da66023	0.081238054
3	0x3cc8a305	0.024491796
4	0x3c5f784b	0.01363952
5	0xbcafbdb1	-0.021452757
6	0x3c4e57a3	0.012594136
7	0x3c51825d	0.012787429
8	0x3d510f38	0.051039904
9	0xbdeb4b72	-0.114889994
10	0xbd282b25	-0.04105677
11	0xbde899b4	-0.113574415
12	0xbdbf9cdc	-0.093560904
13	0xbd928fc9	-0.07156331
14	0x3dfbb075	0.12289516
15	0xbdf2881a	-0.118423656
16	0xbd69697c	-0.056985363
17	0xbd84d62f	-0.06486165
18	0xbc8a5024	-0.016883917
19	0xbda3c5c7	-0.079967074
20	0xbddab612	-0.106792584
21	0xbd36b49e	-0.044605844
22	0x3d1acf3a	0.037795283
23	0xbd27f241	-0.041002516
24	0xbd438d39	-0.047742102
25	0xbd36bbb8	-0.044612616
26	0x3d8aa88a	0.067704275
27	0xbdd77241	-0.10519839
28	0x3df7264a	0.1206785
29	0xbdf570fc	-0.11984441
30	0x3d7b78b6	0.061394416
31	0x3bbbfcb6	0.0057369126
32	0x3c385049	0.01124961
33	0x3cd975ab	0.026545366
34	0x3d0985d1	0.033574883
35	0x3c6bbe76	0.014388671
36	0xbdfb968e	-0.122845754
37	0x3dcc7dba	0.09984918
38	0xbdbf4525	-0.0933936
39	0xbced765a	-0.028987098
40	0x3da86d58	0.08223981
41	0xbd1b233c	-0.0378754
42	0xbdb98093	-0.09057727
43	0x3d645598	0.05574569
44	0xbd22705c	-0.039657936
45	0xbd516208	-0.05111888
46	0x3de37e7f	0.111081116
47	0xbc6aef93	-0.0143393455
48	0xbdbf38fe	-0.09337042
49	0xbdf05ff2	-0.1173705
50	0xbddc3da7	-0.10753947
51	0x3d159d39	0.036526892
52	0x3ccd08e3	0.025028652
53	0xbd48b0ea	-0.048996843
54	0x3d013604	0.031545654
55	0x3cd78e7b	0.026313057
56	0x3d4e8503	0.05041982
57	0x3d279ac8	0.040919095
58	0xbdc3471d	-0.09535048
59	0x3dfb4741	0.1226945
60	0x3de43d72	0.11144532
61	0x3dc15488	0.09439951
62	0x3d4165a6	0.04721608
63	0xbc96bb69	-0.018399911
64	0xbcca96eb	-0.024730166
65	0xbdfa6062	-0.12225415
66	0xbcfb66de	-0.0306887
67	0x3df2a83c	0.118484944
68	0xbd31f474	-0.04344602
69	0x3b8a3b90	0.004218526
70	0x3dfa1175	0.12210361
71	0x3b73e2ae	0.003721397
72	0xbd7b0379	-0.06128261
73	0xbdd2cd24	-0.10293034
74	0xbd979055	-0.07400576
75	0x3dc13889	0.09434611
76	0x3d9e4ec2	0.077298656
77	0xbe06c2ee	-0.13160297
78	0xbdfc1ad2	-0.12309803
79	0xbdd275ae	-0.10276352
80	0x3df7b730	0.12095487
81	0xbd6216f1	-0.05519766
82	0x3d9c65ff	0.07636642
83	0x3d23b10d	0.03996377
84	0x3d1e6f97	0.03868064
85	0xbcada44d	-0.021196509
86	0xbd445e32	-0.047941394
87	0xbd9d737d	-0.07688043
88	0x3c34dfb6	0.011039665
89	0x3c99f0e3	0.018791622
90	0xbce6105a	-0.028083969
91	0x3deafba8	0.11473781
92	0xbc144d3e	-0.009051619
93	0x3ba25162	0.0049535492
94	0x3df0f5ce	0.117656335
95	0x3dc4ae51	0.09603561
96	0xbdbe4c28	-0.092918694
97	0xbe04e67a	-0.12978545
98	0x3d2b4991	0.041818205
99	0xbd9e671f	-0.077345125
100	0xbcc9848e	-0.02459934
101	0xbdf12b49	-0.11775834
102	0x3ca796fe	0.02045774
103	0xbd3721b1	-0.044709865
104	0xbde92382	-0.11383726
105	0xbd5637f3	-0.05229945
106	0xbd0fb2ad	-0.035082508
107	0x3dbb47b1	0.091445334
108	0xbcbfad27	-0.023397995
109	0x3c3d0515	0.011536856
110	0xbcf5a8f4	-0.02998779
111	0x3b084081	0.00207904
112	0xbd9a266c	-0.0752686
113	0xbd95cc37	-0.073143415
114	0xbcb909bf	-0.022587655
115	0xbce43b4e	-0.02786031
116	0xbd6889e3	-0.056772124
117	0xbd9445c6	-0.07239871
118	0x3dbfbf4b	0.09362658
119	0x3df7ddd0	0.12102854
120	0xbd9ed74d	-0.07755909
121	0xbd92aa59	-0.071613975
122	0x3d77cbaf	0.060496982
123	0xbda5d2a4	-0.08096817
124	0xbddcbade	-0.107778296
125	0xbda71af3	-0.08159437
126	0xbd29e6ab	-0.041479748
127	0x3d98e483	0.0746546
128	0xbd8d86c2	-0.06910469
129	0x3de3b513	0.111185215
130	0xbd5e863a	-0.054327227
131	0x3c650d34	0.013980199
132	0x3d8c3da1	0.06847692
133	0xbd5111ce	-0.05104237
134	0xbdd6f030	-0.10495031
135	0x3d923280	0.07138538
136	0xbd8463c3	-0.064643405
137	0xbd506308	-0.050875694
138	0x3d7ca4a8	0.061680466
139	0xbdc7427f	-0.0972948
140	0x3da398b2	0.07988109
141	0x3c6d5dcf	0.014487698
142	0xbd528f6a	-0.0514063
143	0xbd8b9910	-0.06816304
144	0xbda04666	-0.078259274
145	0xbccc8ae2	-0.024968568
146	0x3d144fe1	0.03620899
147	0xbda64537	-0.081186704
148	0xbd1dc25e	-0.03851544
149	0xbc6c0ae5	-0.014406894
150	0xbd58cc11	-0.052928988
151	0xbd57b199	-0.052659605
152	0xbdb6e0dd	-0.08929608
153	0x3e13c618	0.14431036
154	0xbdf012f6	-0.117223665
155	0x3dca57ce	0.09880029
156	0xbc243831	-0.010023163
157	0x3dd8a66c	0.105786175
158	0x3dccf2ff	0.10007285
159	0x3d8a79f1	0.0676154
160	0xbd383e37	-0.044981208
161	0x3dc4ee09	0.09615714
162	0xbdb5623d	-0.08856628
163	0x3d83bc27	0.064323716
164	0xbd4c616d	-0.0498976
165	0x3d04b304	0.032397285
166	0x3bd5a5c2	0.006520004
167	0x3d21f319	0.039538477
168	0x3dbcd31b	0.09219953
169	0xbd7e5f66	-0.062102698
170	0xbde5daba	-0.112233594
171	0x3cad6383	0.021165615
172	0x3d0627a4	0.032752648
173	0x3d03d55b	0.032185894
174	0xbd8472e5	-0.06467227
175	0x3d0ad532	0.033894725
176	0xbd373ae4	-0.044733897
177	0xbdc32bdf	-0.09529852
178	0xbcce2337	-0.025163276
179	0xbc75fe1b	-0.015014197
180	0x3c14c12b	0.009079258
181	0x3dec3f22	0.11535479
182	0x3c391a03	0.011297706
183	0xbdfce6c4	-0.123487025
184	0x3d9f1fb0	0.07769716
185	0xbd5fa23f	-0.05459809
186	0x3c575e77	0.013145081
187	0x3c3b922d	0.011448425
188	0xbc76a2cd	-0.015053463
189	0x3cc1a645	0.023638854
190	0x3d5ef146	0.054429315
191	0x3d0c8fc5	0.034316797
192	0xbd2e951b	-0.042622667
193	0xbdab6858	-0.08369511
194	0x3d9c99dc	0.07646534
195	0x3da94094	0.082642704
196	0xbd553499	-0.052052114
197	0xbcce17ed	-0.025157893
198	0x3ce9cc8b	0.028539917
199	0x3d68e7d9	0.056861732
200	0xbdde172c	-0.108442634
201	0x3d9844d7	0.07435005
202	0xbbb19268	-0.0054190643
203	0x3db412cd	0.087926485
204	0x3dc561fe	0.09637831
205	0xbd5355b4	-0.051595405
206	0x3cd21d4f	0.025648741
207	0xbd888580	-0.06666088
208	0x3dd998b2	0.106248274
209	0xbdb5d80f	-0.088791005
210	0x3de489e1	0.11159111
211	0xbdb57f11	-0.088621266
212	0xbda019d5	-0.07817427
213	0xbca3d197	-0.019997401
214	0x3deafa9f	0.114735834
215	0xbd7b4c61	-0.061352137
216	0xbdbf6fad	-0.09347472
217	0xbdccd8ed	-0.10002313
218	0xbd9e0297	-0.07715338
219	0x3db99edd	0.09063504
220	0x3ce7f6c9	0.028315919
221	0xbcdf33b9	-0.027246343
222	0xbdef2bed	-0.116783
223	0x3c91d1fb	0.017800322
224	0x3b0cb1a6	0.0021468191
225	0x3dd155e5	0.10221461
226	0x3dcfb764	0.10142401
227	0x3d542f7c	0.051803097
228	0xbdcbcd37	-0.09951251
229	0x3d723216	0.059129797
230	0xbd314a07	-0.04328349
231	0x3d5641f4	0.05230899
232	0xbdef991b	-0.116991244
233	0xbd42c185	-0.047547836
234	0xbdb7dfff	-0.08978271
235	0x3d723291	0.059130255
236	0x3dcbdbb0	0.099540114
237	0x3d10ed20	0.03538239
238	0xbd958831	-0.07301367
239	0x3cbf65ee	0.023364034
240	0x3dc3ad5b	0.09554549
241	0xbd8cf0dd	-0.068818785
242	0xbd8dafa0	-0.069182634
243	0x3d5eb66b	0.054373186
244	0x3da255ea	0.07926543
245	0xbc793561	-0.01521048
246	0x3bb6c887	0.005578104
247	0x3dda3128	0.10653907
248	0x3cab0208	0.020874992
249	0x3cc087a3	0.023502177
250	0xbdc5ad4a	-0.09652193
251	0xbc897a79	-0.016782032
252	0xbdc8f567	-0.09812432
253	0x3cdf747a	0.02727722
254	0x3da30e1e	0.07961677
255	0xbd0c1511	-0.034199778

transformer.layers.0.linear2.weight f4 [64, 256]
0	0x3a39a1a4	0.0007081276
1	0x3c1b6da6	0.009486591
2	0xbcf2f673	-0.029658532
3	0xba67b93d	-0.00088395533
4	0xbca2b0a6	-0.019859623
5	0xbd78b590	-0.060720026
6	0xbcf08afe	-0.029363152
7	0x3d534819	0.05158243
8	0xbcea7760	-0.028621376
9	0xbc9df1bd	-0.019280309
10	0x3b11f292	0.0022269827
11	0xbd0e2c64	-0.034710303
12	0x3c761cb4	0.015021492
13	0x3b0e0bda	0.0021674545
14	0x3c424858	0.011858068
15	0xbd213460	-0.03935659
16	0xbd897622	-0.06711985
17	0x3d6d1334	0.05787964
18	0xbd30f384	-0.043200985
19	0x3c0578fb	0.00814652
20	0x3cb3f6ea	0.021968324
21	0xbd6c476e	-0.05768531
22	0xbd2d6cbb	-0.04234002
23	0x3cfce61d	0.030871445
24	0xbd2b69f9	-0.04184911
25	0x3cb9f498	0.02269964
26	0x3c56d899	0.013113164
27	0x3d15b97d	0.03655385
28	0x3d595be8	0.053066164
29	0x3d3def56	0.046370827
30	0x3b82ec65	0.0039954656
31	0x3c9049fa	0.0176134
32	0xbd7058cc	-0.058678433
33	0x3d277cea	0.04089061
34	0xbd20e029	-0.039276276
35	0xbd120f3a	-0.035659052
36	0xbd1523fd	-0.036411274
37	0xbd2748de	-0.040840976
38	0xbc4599e6	-0.012060618
39	0xbd5ab2e6	-0.053393267
40	0x3d6d1a97	0.057886686
41	0xbc0a6c5d	-0.008448687
42	0x3bbf05ca	0.0058295475
43	0xbd1d21f9	-0.038362477
44	0x3ce3778b	0.027766963
45	0x3b1008f3	0.002197799
46	0x3d08a6ee	0.03336232
47	0x3c02f7b9	0.007993632
48	0xbde7ce86	-0.11318688
49	0xbd6a1784	-0.057151332
50	0xbcae7e71	-0.021300526
51	0xbd86b126	-0.06576757
52	0xbd4491ae	-0.047990493
53	0x3d2aece9	0.04172984
54	0xbdaeb6a1	-0.085309274
55	0x3cd57b08	0.026059642
56	0xbe20cf14	-0.15703994
57	0x3cce009f	0.02514678
58	0xbb580180	-0.0032959878
59	0xbc09e614	-0.008416671
60	0x38c9a716	9.615549e-05
61	0xbc3608a3	-0.011110458
62	0x3c77c980	0.015123725
63	0x3d81c30f	0.063360326
64	0xbd11b491	-0.035572592
65	0xbc3038c6	-0.010755723
66	0x3cc80020	0.024414122
67	0xbd10c9c1	-0.035348658
68	0xbc2f80c1	-0.01071185
69	0x3d874d23	0.066065095
70	0xbd5aea8e	-0.053446345
71	0x3d6521a2	0.055940278
72	0xbd065dd0	-0.03280431
73	0xbc460bc5	-0.012087767
74	0xbd28e8eb	-0.041237753
75	0xbd92fedf	-0.07177519
76	0x3c7f9e2f	0.015601679
77	0xbd13f73d	-0.036124457
78	0x3c949aa9	0.018140154
79	0x3c54a10d	0.012977851
80	0xbd851e5f	-0.064999335
81	0xbc820607	-0.015872015
82	0x3c94f836	0.018184762
83	0xbcb54ab3	-0.022130346
84	0x3d5625a4	0.05228199
85	0x3ceab317	0.02864985
86	0x3caa351e	0.020777281
87	0xbd7c9f55	-0.06167539
88	0xbbed3188	-0.0072385706
89	0xbda94b9b	-0.08266374
90	0xbd3ae7d6	-0.045631252
91	0x3d4c7ba3	0.049922597
92	0x3d484241	0.04889131
93	0xbd951262	-0.07278897
94	0xbc4cfd50	-0.012511566
95	0x3a976b27	0.001155232
96	0xbd892152	-0.066958085
97	0xbd24b3d6	-0.040210567
98	0xbd869946	-0.06572203
99	0x3c88a0e0	0.016678274
100	0x3d1ad264	0.0377983
101	0xbd1c1786	-0.03810837
102	0x3ce35e6b	0.027754983
103	0xbd8bb83e	-0.06822251
104	0x3d5fd029	0.054641876
105	0xbdf16167	-0.11786156
106	0x3ca021d8	0.019547388
107	0xbcbb3e13	-0.022856748
108	0xbc9468e7	-0.018116428
109	0xbd69331d	-0.05693351
110	0xbca52578	-0.020159468
111	0xbda8a0ae	-0.08233772
112	0x3d2678de	0.04064261
113	0xbd2526bc	-0.040320143
114	0x3c3744c5	0.0111858295
115	0x3d67d4cc	0.056599423
116	0xbd673ca8	-0.05645433
117	0x3d00c77f	0.031440254
118	0xbd50a5cc	-0.050939366
119	0xbce4abc4	-0.027913935
120	0xbd462066	-0.04837074
121	0xbbc749be	-0.006081789
122	0x3d1031fe	0.035203926
123	0xbd4005f0	-0.046880662
124	0xbc5a2530	-0.01331453
125	0xbd3416fd	-0.043967236
126	0x3cb1b3d1	0.021692188
127	0x3d4cc111	0.04998881
128	0xbd2ca949	-0.04215363
129	0x3bfd224c	0.007725036
130	0xbd9a9cec	-0.07549462
131	0x3d244ac6	0.040110372
132	0xbcc2ef2b	-0.023795685
133	0xbcad00bd	-0.021118516
134	0x3b8a3016	0.004217158
135	0x3d4760ed	0.04867642
136	0xbd9b416b	-0.07580837
137	0xbd2655dd	-0.04060923
138	0xbd22c07c	-0.03973435
139	0xbce3c1f9	-0.027802454
140	0x3d6e965a	0.058248855
141	0xbc2c343f	-0.010510503
142	0xbc9273db	-0.01787751
143	0x3ca19f83	0.019729381
144	0x3d15f709	0.036612544
145	0xbd939c68	-0.072075665
146	0x3cba75a9	0.022761183
147	0xbd1d7cef	-0.038449224
148	0xbc6e3b26	-0.014540469
149	0xbdc22ad3	-0.09480824
150	0xbb0f8a62	-0.002190255
151	0xbd63a66e	-0.05557864
152	0x39580838	0.00020602427
153	0xbbd3311e	-0.006445064
154	0x3c75b901	0.014997722
155	0xbc4211b7	-0.011845044
156	0xb8f609ad	-0.00011731996
157	0xbcbf0775	-0.023318985
158	0x3d1dcdbd	0.038526285
159	0x3d5f6ddb	0.054548126
160	0xbd8eb1f5	-0.06967536
161	0x3ba80bea	0.0051283734
162	0x3d4149ec	0.047189638
163	0xbd0484f0	-0.03235334
164	0xbd517bd4	-0.051143482
165	0x3d2e27c1	0.04251838
166	0xbd569be2	-0.052394755
167	0xbd65f4d9	-0.056141708
168	0xbd11f716	-0.03563603
169	0x3c54dcea	0.012992123
170	0x3b9bf857	0.004759829
171	0x3caace87	0.020850433
172	0xbcbee286	-0.023301374
173	0x3d0c4aff	0.03425121
174	0x3cd9b80f	0.026577024
175	0xbd5b0ec2	-0.05348087
176	0x3d1b7799	0.037955854
177	0xbdfba1c1	-0.122867115
178	0xbe2dd33f	-0.16975115
179	0xbd282406	-0.04104998
180	0xb9639f19	-0.00021707675
181	0x3d41fbdb	0.04735933
182	0x3d127a9a	0.035761453
183	0x3d3d44f5	0.04620834
184	0xbdaf4880	-0.0855875
185	0xbbe8c66a	-0.007103731
186	0xbd1d73e9	-0.03844062
187	0xbd9007d5	-0.07032744
188	0xbc228ee0	-0.009921759
189	0x3d17731b	0.036975008
190	0x3d631a6a	0.055445112
191	0xbb07165c	-0.0020612692
192	0xbd1c60f5	-0.038178403
193	0xbd707361	-0.058703784
194	0x3cac224d	0.02101245
195	0xbbb7d29d	-0.005609824
196	0xbcb9fd9e	-0.022703942
197	0xbd0f4d9e	-0.03498613
198	0xbcb53482	-0.022119764
199	0xbc515801	-0.012777329
200	0xbe6cbcb7	-0.23118864
201	0xbdb43ccd	-0.08800659
202	0xbcb442bf	-0.022004483
203	0xbd98ac54	-0.07454744
204	0xbda73c02	-0.081657425
205	0xbcee53ba	-0.029092658
206	0xbd6971cd	-0.056993295
207	0x3bfabda8	0.0076520033
208	0xbd33a2a7	-0.04385629
209	0x3d620e50	0.05518943
210	0xbde109c3	-0.1098819
211	0x3b88bfef	0.004173271
212	0x3c9a5b2f	0.018842308
213	0xbd76b63b	-0.060232382
214	0xbd41c0f0	-0.04730314
215	0x3d51fef2	0.051268525
216	0xbbae9d5d	-0.0053288178
217	0xbd4d0e79	-0.05006263
218	0x3ba1f2c0	0.004942268
219	0xbd247278	-0.04014823
220	0xbd4eed80	-0.050519466
221	0x3cc3905b	0.023872545
222	0xbd075bd2	-0.03304655
223	0xbd39680f	-0.045265254
224	0x3d7e80dd	0.062134612
225	0xbd5ed390	-0.05440098
226	0xbc427756	-0.011869272
227	0xbc0693e0	-0.008213967
228	0xbd8ceae1	-0.06880737
229	0xbb6f80d4	-0.0036545293
230	0xbb42f9f0	-0.0029751025
231	0xbd2e4b3e	-0.042552225
232	0xbd31ba50	-0.043390572
233	0xbbeaa41e	-0.0071606776
234	0x3ca665e0	0.02031225
235	0xbc70ceed	-0.014697772
236	0xbbd41b4f	-0.006472982
237	0x3cf07ab0	0.029355377
238	0xbc8e99b5	-0.017407278
239	0xbccd5bad	-0.025068128
240	0xbd9c35a0	-0.07627416
241	0xbdc31958	-0.09526318
242	0xbd5637b7	-0.052299228
243	0xbc33731b	-0.010952736
244	0x3d460346	0.048342966
245	0x3d2ed1b3	0.042680454
246	0x3c3c8c33	0.0115080355
247	0x3cb7c561	0.022432985
248	0xbcd56c5c	-0.026052646
249	0xbc33585d	-0.01094636
250	0xbcdb19c8	-0.026745692
251	0xbc37c60d	-0.011216653
252	0xbc2285de	-0.009919612
253	0xbc96c1c1	-0.018402936
254	0xbcb086e8	-0.021548703
255	0xbd1b66cd	-0.037939835

transformer.layers.0.linear2.bias f4 [64]
0	0xbb7183a3	-0.0036852143
1	0xbc80bac0	-0.01571405
2	0xbbf88f5a	-0.007585448
3	0xbcca2435	-0.024675468
4	0xbd540094	-0.051758364
5	0xbc920728	-0.017825678
6	0x3cb102f8	0.02160786
7	0x3c0818ad	0.008306664
8	0xbd72753a	-0.059193827
9	0x3c9bfbbd	0.019040937
10	0x3d66882e	0.056282215
11	0xbcaa2b1c	-0.02077251
12	0xbc162899	-0.009164953
13	0xbcc87ce7	-0.02447362
14	0xbc866dab	-0.016409716
15	0xbd738f70	-0.059462965
16	0xbd118f98	-0.035537332
17	0x3d28bfd1	0.041198555
18	0xbd296596	-0.041356646
19	0x3d611a27	0.05495658
20	0xbc92a3fc	-0.01790046
21	0xbd1f1945	-0.03884246
22	0x3ccbc838	0.024875745
23	0xba88f2cd	-0.0010448337
24	0xbd3dc0ce	-0.04632645
25	0x3c49b8a1	0.012312085
26	0x3c028d98	0.007968329
27	0xbc23e499	-0.010003232
28	0x3caa564a	0.020793099
29	0x3d2c59cb	0.04207782
30	0x3c6d0fbc	0.014469083
31	0xbc9b0b79	-0.018926369
32	0x3d547452	0.051868744
33	0xbd20465c	-0.0391296
34	0x3d8a4e41	0.06753207
35	0x3bc812b4	0.006105745
36	0xbd483d62	-0.048886664
37	0xbb2b55c7	-0.0026143657
38	0xbd1d8b4a	-0.038462915
39	0xbc99d93d	-0.018780345
40	0xbd375639	-0.044759963
41	0x3d2a4c76	0.041576825
42	0xbd1b5ca8	-0.03793016
43	0xbd2f3189	-0.04277185
44	0x3bf7f135	0.007566596
45	0x3cfe1c67	0.031019403
46	0x3ce7c939	0.028294193
47	0x3d4e66d5	0.050391037
48	0xbd786e98	-0.060652345
49	0xbd59dec3	-0.053190958
50	0x3c5d1224	0.013493095
51	0x3c8d2e72	0.01723406
52	0x3d238be1	0.03992832
53	0x3bb74986	0.0055934815
54	0x3d59d56b	0.053182047
55	0xbb9b0b05	-0.0047315382
56	0x3d267b53	0.040644955
57	0xbd2f8192	-0.042848177
58	0xbd08c909	-0.033394847
59	0x3d1aefb8	0.03782627
60	0x3cae1ba5	0.021253416
61	0xbc8ecbb6	-0.017431121
62	0xbd062a77	-0.03275534
63	0xbd7f5bc6	-0.06234338

transformer.layers.0.norm1.weight f4 [64]
0	0x3f81588a	1.0105145
1	0x3f802d35	1.0013796
2	0x3f8150a0	1.010273
3	0x3f7f396b	0.9969699
4	0x3f804e8c	1.0023971
5	0x3f8073d5	1.0035349
6	0x3f7d3fea	0.9892565
7	0x3f820b26	1.0159652
8	0x3f81b377	1.0132893
9	0x3f7ca471	0.9868842
10	0x3f81dfc4	1.0146413
11	0x3f7f8124	0.9980643
12	0x3f80ae33	1.0053161
13	0x3f80aabf	1.0052108
14	0x3f7efba6	0.99602735
15	0x3f819dc1	1.0126268
16	0x3f7d40d8	0.9892707
17	0x3f803659	1.0016586
18	0x3f7f9de9	0.99850327
19	0x3f80c373	1.0059646
20	0x3f7fee7b	0.9997327
21	0x3f824306	1.0176704
22	0x3f7f9bf5	0.99847347
23	0x3f7f9005	0.9982913
24	0x3f7f8da1	0.99825484
25	0x3f7d1072	0.9885322
26	0x3f81235b	1.0088915
27	0x3f7f419a	0.99709475
28	0x3f7f34ad	0.9968975
29	0x3f811209	1.0083629
30	0x3f80db8b	1.0066999
31	0x3f7fc5bb	0.9991109
32	0x3f7fd838	0.999393
33	0x3f8033a7	1.0015763
34	0x3f7f68c9	0.99769264
35	0x3f7c2616	0.98495615
36	0x3f83c429	1.0294238
37	0x3f7f1994	0.99648404
38	0x3f804e23	1.0023845
39	0x3f7fcd23	0.9992239
40	0x3f7bc0f6	0.9834131
41	0x3f82fdd3	1.0233711
42	0x3f7f7a90	0.9979639
43	0x3f805d51	1.0028478
44	0x3f80ba72	1.0056899
45	0x3f80e87a	1.0070946
46	0x3f82812b	1.0195669
47	0x3f7fcf08	0.9992528
48	0x3f7e273e	0.9927863
49	0x3f7f0db8	0.9963031
50	0x3f80438c	1.0020614
51	0x3f7f198d	0.9964836
52	0x3f7d4218	0.98928976
53	0x3f7ebb8b	0.9950492
54	0x3f7e7cdd	0.99409276
55	0x3f800511	1.0001546
56	0x3f802e70	1.0014172
57	0x3f80880d	1.0041519
58	0x3f7f555d	0.9973963
59	0x3f7fd21d	0.9992998
60	0x3f7ee2be	0.9956473
61	0x3f7f8e5b	0.9982659
62	0x3f803a97	1.001788
63	0x3f8140c2	1.0097888

transformer.layers.0.norm1.bias f4 [64]
0	0x3a04440d	0.0005045541
1	0xbbe3338f	-0.0069336365
2	0x3b3367c3	0.002737508
3	0x3bb9a259	0.0056651053
4	0x3c006320	0.007836133
5	0x3c12f77a	0.008970136
6	0x3b9738f7	0.004614945
7	0xbb3fc278	-0.00292602
8	0x3b1af3b4	0.0023643794
9	0xbc66fa9c	-0.014097836
10	0xbc16bd39	-0.009200388
11	0x3bd3f469	0.006468345
12	0xbad7030e	-0.0016404109
13	0x3ac6e860	0.0015175454
14	0xbad4d13f	-0.0016236677
15	0x3a8ad511	0.0010592063
16	0xbbfc4d5f	-0.007699653
17	0x3b97c90e	0.004632122
18	0x3b025b08	0.0019890685
19	0x3b34a50b	0.0027564194
20	0x3aaab00a	0.0013022434
21	0x3b97fa7f	0.0046380158
22	0x3b6301e9	0.003463859
23	0xbc16d439	-0.009205871
24	0xbbe8063d	-0.007080822
25	0x3c345766	0.011007166
26	0x3b48474b	0.0030560072
27	0xbb83f479	-0.004026946
28	0x3c5485c4	0.012971345
29	0x3beb66be	0.0071838787
30	0x3ba741ea	0.005104293
31	0x3a80cdd3	0.0009826965
32	0xbb92f3ce	-0.00448463
33	0xbb1626f1	-0.0022911394
34	0x3c21b52c	0.009869855
35	0xbc25379a	-0.010084057
36	0xba7f7207	-0.00097444694
37	0x3b75d748	0.003751235
38	0x3b223604	0.0024751434
39	0xbbb8dbb2	-0.005641424
40	0xbc8a4181	-0.016876938
41	0x3bb2cda5	0.0054566436
42	0xbbca06de	-0.0061653694
43	0xbc127a51	-0.008940295
44	0xb9461e8e	-0.00018894134
45	0x3be2ea64	0.006924914
46	0xbacfb73e	-0.0015847457
47	0x3bdef380	0.00680393
48	0xbb2cd034	-0.0026369216
49	0xbbb0a821	-0.0053911363
50	0xbba29d8e	-0.0049626296
51	0xbb8d1674	-0.004305655
52	0x3c24bc42	0.01005465
53	0xbc254115	-0.010086318
54	0x3c67a97f	0.014139532
55	0x3b14b801	0.0022692683
56	0x3c5da446	0.013527935
57	0xbba8c2af	-0.005150161
58	0x3b8b22cc	0.0042460915
59	0xbba6f490	-0.005095072
60	0xbbed6c51	-0.0072455783
61	0xbb148138	-0.0022660028
62	0x3c0e33ac	0.008679312
63	0xbbd1321a	-0.0063841464
